statedict.pt (torch_old, 2641 bytes, 4 tensors)

hidden_1.weight f8 [10, 14]
000000 70 f3 29 c7 9f 5c c1 3f 57 36 b2 af 5d 55 c0 bf
       0.13563916420744304 -0.12760516241944472
000010 8d 27 bb d8 fb 8f a4 bf e9 08 98 fd 54 f2 c6 3f
       -0.04016100903170559 0.17927038557542765
000020 01 05 38 4d 81 4a cf 3f d2 d9 d1 de fc a3 cf bf
       0.24446121473742013 -0.24719200973386407
000030 4a 40 fe 61 b3 03 a9 3f 67 b1 9d 30 13 ea c1 3f
       0.04885635920720739 0.1399559008963351
000040 03 b8 de 3c 08 91 b2 bf d5 44 61 78 3d 9d ce 3f
       -0.07252551542362089 0.23917358758857313
000050 88 24 6a 3a ae 21 a6 3f 8e 3c 4a 7d 27 8b c2 3f
       0.04322571242398349 0.14487165086436388
000060 25 c4 65 5b e7 4e aa 3f df 0b 99 9c cc d8 85 3f
       0.05138323774998125 0.010667418030726182
000070 86 31 e4 88 53 0a cd 3f b1 fd cb df fe c2 d1 3f
       0.22687763389729926 0.2775265870586408
000080 af e2 d1 86 35 90 d0 bf c1 65 4d 40 9d 69 c1 3f
       -0.2588018242454763 0.13603559150469205
000090 51 dc 03 79 9f bf ca bf 48 31 a3 2e 4e 6e 92 3f
       -0.20897286805095175 0.017998906704449952
0000a0 8a 3a af da 35 3f c1 bf 38 18 e8 c6 ec 06 b6 bf
       -0.13474152734712092 -0.08604316574209825
0000b0 47 21 93 cc 07 a9 d0 3f 02 20 d6 e4 6b 54 d0 3f
       0.2603168008613647 0.2551526770334932
0000c0 9e a6 7a 13 df 8a b7 bf 20 66 ce be 21 df c2 3f
       -0.09196275926174244 0.14743444267951222
0000d0 b5 cd c2 aa d0 6a b3 3f da c8 ec 89 ff d7 b3 bf
       0.07584861916512049 -0.07751462094600772
0000e0 34 56 ec 2b 83 6a ce bf 2c 5f ae 4b ad cb c9 bf
       -0.23762550015151052 -0.20152822680824423
0000f0 0f 1d ec 73 30 8d ca bf 4f 50 f5 b9 40 b6 d0 3f
       -0.20743375454205945 0.26112383041368487
000100 5d 51 ca 2d 4f 93 51 bf 60 63 92 21 82 d3 bf bf
       -0.0010727189284454799 -0.12432111091255882
000110 87 a1 b0 fc 26 32 c1 bf 1b c5 8a 1e c5 00 c7 3f
       -0.1343430265271872 0.17971099845230118
000120 8b 9c 44 a8 a1 19 bb bf 50 13 f5 cd ea e5 cb 3f
       -0.10585985525232126 0.2179540162707334
000130 c8 83 73 59 46 29 cb bf 53 40 ee 07 ae a5 af 3f
       -0.21219710700736827 0.061810911625003094
000140 5a 32 4c 4c 8d 98 bd bf 3e 52 56 52 f5 a1 91 bf
       -0.11560900795684273 -0.017219384336913494
000150 64 e8 3a df ad 63 c9 3f 56 e7 63 42 80 7e a5 bf
       0.19835446739108697 -0.04198075113704529
000160 db 98 32 40 18 dd bd bf ae ab 59 5e 5f e5 8a 3f
       -0.11665488784146609 0.013132805888025203
000170 6f 8b 01 01 17 44 be bf 66 df 3a 07 d5 db c4 3f
       -0.11822646879731534 0.16295874455476705
000180 3c 95 e5 4b e2 94 2f 3f cb 35 08 c3 90 83 b1 bf
       0.00024094831855873435 -0.06841377984547774
000190 30 64 82 e5 32 ca cb bf 06 43 b8 46 cc 41 c9 bf
       -0.21710811811934283 -0.19732049420465375
0001a0 4b 7e 75 3d b5 71 b7 bf 1a 40 56 5a 46 aa c6 3f
       -0.09157879591429567 0.17707137499792297
0001b0 f6 d9 01 eb 9f 34 9c bf a4 b2 e7 ab 71 1a c5 3f
       -0.0275444972216636 0.16486950773050524
0001c0 02 e7 88 4d 39 7c b9 bf d8 b8 03 dd db 01 b1 bf
       -0.09955175536097374 -0.06643461366522574
0001d0 74 17 08 56 f4 21 c8 bf 26 f2 29 b4 4a 0c c6 3f
       -0.18853620720636466 0.1722501163202576
0001e0 6e 41 3d 6e 68 b4 a3 3f ea 9b d8 01 47 8d ce bf
       0.038485778290694536 -0.23868644323485394
0001f0 5f b9 76 f0 b9 ed b9 3f f7 cd 24 11 6b 64 aa bf
       0.10128366585442937 -0.051547380297417726
000200 5f 83 7c cb 2b c4 99 bf 2b cc fb 78 83 17 c5 bf
       -0.025162395758460018 -0.16478007705117767
000210 0e a2 55 3b 34 d1 5d 3f c0 04 97 01 ef f4 c8 3f
       0.0018198976589137747 0.19497478082306507
000220 3f 59 06 99 67 de bc bf d7 3a 84 5f db 8f c1 bf
       -0.11276862607914938 -0.1372026649846336
000230 fd 15 d2 32 86 8a ad bf 63 40 c0 41 4c c8 64 3f
       -0.057697480872814545 0.002536915721073328
000240 f2 26 a9 37 94 16 c9 3f 97 68 a6 fc 2e fd a5 3f
       0.19600155561266025 0.042947262135571034
000250 5e 58 1c e7 22 d5 c1 3f 04 78 79 38 16 b7 c2 3f
       0.13931690487578668 0.1462123656992277
000260 27 22 f2 cd 1d 6e c6 3f a8 5f 53 9e 91 b2 97 bf
       0.17523548656414897 -0.023142123497421757
000270 41 ab 37 e6 1b 17 c3 3f 3b 28 bb c9 30 db c1 3f
       0.1491427301510502 0.13950166559362906
000280 7f ea c0 1a e2 bf bc bf 33 ef b8 bd c4 7b b3 3f
       -0.11230290558970955 0.07610730773825196
000290 fe c9 4e 8d 2c ad d0 bf 7e 67 18 9a 73 f4 be bf
       -0.2605697040518463 -0.12091753494351384
0002a0 78 fb 5a 8b ff 91 cb bf 7d 05 6e 25 cb e0 c8 bf
       -0.21539301208937522 -0.19436015441537427
0002b0 5b 80 f5 4a 5d 54 c7 3f c6 2a a9 3c f7 8e c8 bf
       0.1822620979319279 -0.19186296903565941
0002c0 86 fa e2 34 52 7f c3 3f 5f e0 80 34 0e b8 b3 3f
       0.15232303221087679 0.07702721387693277
0002d0 a6 87 4a 31 ac 7f c6 3f a2 e8 34 4b 05 60 cd 3f
       0.17577125937264987 0.2294928185672847
0002e0 76 14 61 ca ba 48 c8 3f f1 9b 4d e0 b9 0e c6 3f
       0.18971953279302384 0.17232440426161547
0002f0 ec fa 22 5a 7c f8 cd bf 56 81 55 56 f6 35 af 3f
       -0.2341456833000487 0.06095857433206457
000300 98 34 c5 e5 be 50 ca bf dd c2 76 d3 26 a5 cb bf
       -0.20558916301016406 -0.2159775288141849
000310 b8 3e d7 a9 a1 7b ce bf 46 73 3e a0 cd d6 c8 bf
       -0.2381479338932786 -0.1940552742425103
000320 58 a9 8d ca a0 9b ad 3f aa 3b c6 53 d8 bb c7 bf
       0.05782797310424098 -0.18542007532638866
000330 89 3c 5e d2 13 fc cf 3f bd 10 2a 51 2f 95 be 3f
       0.24988029262428693 0.11946387988615732
000340 2b c1 1e fa 30 69 c6 bf a8 e8 9c 25 ab c6 84 bf
       -0.1750851842202875 -0.010144555173259143
000350 ac fe 20 d1 90 c7 c5 3f c3 96 ad f4 c1 3e cb 3f
       0.17015276156779657 0.2128527111737438
000360 07 35 07 ae f8 f7 c0 3f a0 d1 27 96 2b 07 50 3f
       0.1325674867388573 0.0009782720231871003
000370 91 df f2 47 81 fc c9 3f d5 c7 9c ab c4 54 cf 3f
       0.20301834118958742 0.24477442149651432
000380 e6 22 e1 db 43 ca b0 3f 65 89 02 3b 5c 8f ca 3f
       0.0655863200964962 0.20750000840514385
000390 1f 96 da 65 bd d7 ab 3f ba c1 7b b4 f0 84 d0 3f
       0.05438033932049912 0.2581140291722722
0003a0 4e 67 6a 32 fc 6c c2 3f 48 83 ee 26 46 70 af 3f
       0.14395096265507806 0.06140345788231244
0003b0 0a 31 4d 28 43 12 cd bf d8 f9 b6 89 fa 42 b3 3f
       -0.22711982219551202 0.07524076330353269
0003c0 73 5e 79 fa 39 46 cc 3f 89 67 43 16 2e f8 c6 bf
       0.22089314203434504 -0.1794488533694756
0003d0 06 f3 02 17 63 4d c3 bf dd 21 4a 52 80 6a cc bf
       -0.1507991659508649 -0.2220001603893839
0003e0 85 44 89 c1 d9 00 b1 3f b1 d5 d0 d3 67 58 c4 bf
       0.06641922926907469 -0.15894792406622352
0003f0 cb a9 37 18 0b d0 be bf 93 71 a7 05 6b 63 b5 3f
       -0.12036198941465341 0.0835482491306208
000400 c5 19 19 08 77 ac bf bf ba 47 aa 0b 2e d0 a5 3f
       -0.12372535655695234 0.042603911327332836
000410 64 64 3d 64 3d a9 b6 3f 65 22 0a 66 0f 14 c8 bf
       0.088519894573794 -0.18811218721772885
000420 f5 4c 9c 0c 97 16 c1 bf 99 c5 d7 c4 a8 dc 88 bf
       -0.13350189319371678 -0.012139624125640224
000430 45 2e 15 41 3e 3c c5 3f a9 14 81 c1 63 e5 ca 3f
       0.16590097596996337 0.2101254172177154
000440 e8 59 5c 6b 90 49 c4 bf 4b 43 16 08 87 52 b9 bf
       -0.1584949993345639 -0.09891551921306278
000450 22 3e ea ab 26 bd 3e bf d7 24 47 3e c7 bb 84 bf
       -0.00046903795365779895 -0.01012378367240034

hidden_1.bias f8 [10]
000000 af 5a 6e 39 be be d1 bf cd ad f7 79 fb b5 c0 bf
       -0.2772670327043824 -0.13055365996784332
000010 b9 3d 5c 3f 23 e0 ce bf 81 5a 8c 16 8f c5 c8 3f
       -0.24121513932958097 0.19352902031888067
000020 63 e1 9b f0 2d f4 cb 3f 1c c6 b4 18 13 29 a1 bf
       0.21838926552278357 -0.033516499296080776
000030 e8 1a 21 26 75 99 cc bf d9 fe 29 c6 9d 8a ca 3f
       -0.2234331546953492 0.20735523391703373
000040 ee e2 a5 61 3e dc b2 3f 4e 15 66 ca 1c 13 c8 bf
       0.07367315181717135 -0.18808326609375076

hidden_2.weight f8 [7, 10]
000000 9e 13 62 14 4e c0 8c bf 1d 9f 3a 43 a7 be d0 3f
       -0.014038667676013191 0.26163655820208637
000010 29 86 4e d7 dd c6 cc 3f 59 1d cd 91 25 09 d3 bf
       0.22481892598175193 -0.2974332736816528
000020 67 21 0d a3 77 e8 d0 bf c8 e5 71 fa c9 10 d4 bf
       -0.26418867991426115 -0.31352471787940006
000030 1a c9 2e 9a 46 0b d4 bf 35 b4 ae 4f 18 25 d0 3f
       -0.31318821961316845 0.25226409703720104
000040 ff 69 96 69 a8 8d cb bf cd f4 f1 da 41 b1 c3 3f
       -0.21526055484430626 0.1538469618862223
000050 11 cd 25 eb 84 dc d1 bf 5d bf ad 6d 80 d0 d2 3f
       -0.2790844246257658 0.2939759322243754
000060 44 66 71 16 1e 24 b6 3f 5d da 48 15 9e 6b c9 3f
       0.08648860977100364 0.19859672583852986
000070 32 08 b3 75 91 e8 ac bf 5e eb da 95 4e 21 c8 bf
       -0.0564618545700032 -0.18851644818445384
000080 5a 3a 1a f3 d6 32 c2 bf 0b 12 ea 69 9a 1b d1 3f
       -0.14217650289761502 0.2673097643203454
000090 06 f4 1a f2 a2 fd c6 bf cd 0e c7 dd ee d0 c3 bf
       -0.17961537190959137 -0.15481363133414164
0000a0 82 ea a7 a4 c9 c2 a7 bf 75 9a 74 f6 d4 86 c4 3f
       -0.046407986974334584 0.1603647426029117
0000b0 c3 f0 a4 22 bb 0d d2 bf 5d 3f 10 7b 0f 62 bd 3f
       -0.2820880735705595 0.11477753405074283
0000c0 f1 5d 6d 60 4a 4d d2 bf 08 6b 09 b8 50 f9 b4 3f
       -0.28596743981094536 0.08192924969754867
0000d0 45 05 0a b9 10 68 cd 3f ed 17 c6 82 c0 ea a8 bf
       0.2297383216391983 -0.04866601559028525
0000e0 eb 8e e0 00 79 1f ce 3f 9b 38 4c a0 5c c9 c7 bf
       0.23533546965437976 -0.18583257510221504
0000f0 a2 08 69 5e 79 70 d0 bf d3 3c dc b4 7c 43 bb bf
       -0.25686487407450376 -0.10649852195296043
000100 9f 6e 36 60 81 11 d4 3f 09 64 6c 0d e8 47 d1 3f
       0.31356844325794414 0.27001382170561833
000110 5d d7 ff 3a db 75 b5 bf d4 b9 a0 33 cb 8b b0 3f
       -0.08382959547438192 0.06463308344311908
000120 b7 12 1b 36 4a 07 c4 bf 01 5f cb 9a 13 ff cd bf
       -0.15647246972925696 -0.2343468194801446
000130 29 28 48 7a a8 dd 6c 3f cb 8c 5d db d0 85 d1 3f
       0.003523663576065612 0.2737924711456798
000140 16 19 10 8e 4f 3a d2 3f aa dd 6d 80 5f 9d d4 bf
       0.2848090064366188 -0.3221052889052439
000150 e1 28 2e 13 54 35 b9 3f 95 c6 ae 16 bf ee d2 3f
       0.09846997707623785 0.2958219262610354
000160 38 9c 96 bc 02 d5 d1 3f 62 b4 a9 ca 72 a4 d4 bf
       0.27862614075496905 -0.32253713408755946
000170 c5 07 f0 d5 24 1e d3 3f af 4b 8a b7 51 d8 bd 3f
       0.2987148370012814 0.11658201914751375
000180 d6 0b 30 17 23 17 d0 3f 57 2a 80 5d 04 56 cc 3f
       0.25141217483922895 0.2213750320955394
000190 83 e6 5a 73 fc 8e aa bf 6e c8 7c 8c d6 ac 94 bf
       -0.05187214763777794 -0.020190574955627864
0001a0 41 6e fa 5b 87 79 c6 bf f7 81 83 06 cf c0 a0 bf
       -0.17558376303792225 -0.03272101358902895
0001b0 0c 42 fb 0a 59 89 b8 bf fa 58 74 24 1d 4d c1 3f
       -0.09584576147177176 0.1351658275604633
0001c0 5d e4 51 5f 41 e4 b4 bf 6e c5 8d d8 ce 4e bc 3f
       -0.08160790040155193 0.11057751452405792
0001d0 46 19 ab b5 3c 2e ca 3f 40 8a b8 d5 69 ee 90 bf
       0.20453604574704282 -0.016534475011335426
0001e0 33 36 24 f2 da c8 9f 3f 13 ea 70 4e 9c f8 d4 3f
       0.03103963950075279 0.3276739851022807
0001f0 7f 5c cb 84 cd 73 d3 3f bc a9 5c bf 2a e1 ce bf
       0.3039430424518698 -0.24124655097814507
000200 81 40 d8 da 87 d0 ca bf c2 57 6e 8a 68 a7 c4 3f
       -0.20948885141161003 0.16135889777495832
000210 b9 40 e2 76 c7 6c b4 bf 35 d4 ba 1e 9a 2d a0 bf
       -0.079784838222852 -0.03159791588897357
000220 00 1f a0 b7 3a cb d2 3f 72 6b 6d 0f c0 6f d1 bf
       0.2936541360108862 -0.2724456930788427

hidden_2.bias f8 [7]
000000 dd a0 cd ad a1 d4 cc bf 0a 26 18 dc c6 25 d0 bf
       -0.2252390001915562 -0.2523057126387306
000010 66 ff c1 44 7f 8c d2 3f cf 69 93 f6 de e0 bd bf
       0.2898252650702403 -0.1167125083915501
000020 a1 87 6e f2 dc d5 cd bf c9 5e 50 f1 36 98 d4 bf
       -0.23308908307541024 -0.32179044309439725
000030 dc ac 98 a7 3a d2 c2 bf
       -0.14704068358819355
