docs/tutorials/notebooks/statedict.pt (torch_old, 2641 bytes, 4 tensors)

hidden_1.weight f8 [10, 14]
00000000: 9e8d a8e2 c99b c43f 59f0 4f2d 74aa c3bf
00000010: 65b9 712d f986 a5bf 8481 1ebe 7af0 c63f
00000020: 5001 1350 9b4b d13f 2aaa f22d 52a1 cfbf
00000030: be2a 4422 6ff6 ae3f da66 0a01 e93e c33f
00000040: 2f07 2d66 619e b2bf b64e b101 58e6 d03f
00000050: 8e1d ee75 f676 a63f e85e bcd8 108b c33f
00000060: a885 a27a 73c5 a53f f058 8b9f e0f7 973f
00000070: b314 a1c6 8d1c cd3f 6f3d a360 b59d d13f
00000080: 2d7e 4d28 b6e7 cdbf 8d0f e3d3 e07f c13f
00000090: ccb2 627e 86d2 cabf 28e8 b979 d697 6e3f
000000a0: 3ae4 86d1 9f7b bcbf 1118 5007 beec b7bf
000000b0: c34c fdc6 b1f1 ce3f 9dc2 4612 a870 cd3f
000000c0: 38ef 65c1 9032 b3bf 056e 54a0 fc37 bf3f
000000d0: 740e 46ac 8eff b43f 95d0 6b90 652f b9bf
000000e0: 2c26 4920 c370 d0bf cd61 a09f e088 c6bf
000000f0: ec99 1cb3 89a9 c9bf 7605 cb3d 8297 d03f
00000100: a487 400f c5a8 6c3f f8cf 832a d70b bfbf
00000110: 0a5e 3653 a496 bcbf f62e 0011 7296 c63f
00000120: ea15 3cb5 224b babf cece 5d87 0316 cc3f
00000130: 4e32 514f e68e cabf b652 9a21 0ea0 b03f
00000140: 0fd3 3510 4f59 b8bf 3a88 106d ccb6 91bf
00000150: 3ad6 dd98 12ee c83f a98e 7915 9e76 a5bf
00000160: fec3 03d1 d334 c2bf b44d 48c9 1338 39bf
00000170: 3f59 22c2 19d8 b9bf 687f 603f aa8f c43f
00000180: 48a1 38d8 f0f8 64bf 4aa2 88f0 fb1a b2bf
00000190: bdc3 f6fc 0b24 ccbf 9039 c1ac 6e9b c9bf
000001a0: 3cc1 acb3 9769 bcbf 9ead 8183 8249 c63f
000001b0: b7fb 175a ced2 abbf 507f c85f aac3 c43f
000001c0: da23 4351 aafa b7bf 50e3 8b6e cf70 b0bf
000001d0: fecc 53a1 47ae cabf 771a abaf b42d c33f
000001e0: b568 b217 4169 a93f 2f91 b902 caf3 cebf
000001f0: afcc 5453 1830 b93f 3d6f 498e c5d9 abbf
00000200: a20b 03b4 609b 9cbf 8dc1 e3fb ad6b c5bf
00000210: 5878 49ab 20fe 83bf ce3d d29e 4b95 c83f
00000220: 7319 8f77 afea c1bf 2733 6c76 23ea c1bf
00000230: 5c26 2a79 9e60 b1bf 7e4e fe8b acfc 9c3f
00000240: 22e4 1500 0f18 c73f ec74 6d02 c3bf 923f
00000250: 138a bd4e d4d9 bd3f 99c2 4164 4465 c23f
00000260: e03f 7047 7cfa c23f 08e0 b41b d9be 93bf
00000270: 7c2c 69b4 0ed7 c23f fa90 7e59 f2aa c13f
00000280: 16ed d46c f3e9 bcbf 5048 2155 ffd9 b23f
00000290: 304e eb5a 0e9c d0bf 2fda 1caa df12 bebf
000002a0: 762b aeff d01c cebf 53e0 3a7d f14d ccbf
000002b0: c6ef f0a2 30e6 c53f 3e09 8778 b474 cbbf
000002c0: 11a4 4ca6 4c6a c63f e03a c807 8d06 b93f
000002d0: 4148 7e10 4163 c93f 34c4 9cba ff3d d03f
000002e0: 489c 55b6 5d8b cb3f fa3e 817c 6d6d c63f
000002f0: e025 f0e3 b090 d0bf 9d64 e975 1e1e b33f
00000300: ed8b 7e33 ef87 cdbf 4370 6359 66ef cabf
00000310: 944c f2ea f032 cebf 2322 0469 30cc c8bf
00000320: 8ece 14a7 453c b13f 9918 9da4 e7d9 c6bf
00000330: 519d a808 8ba3 d13f b3dc 245a 2111 c23f
00000340: c47b 55ba 810b c6bf 5fc4 bce8 49cf 8f3f
00000350: c872 0235 ac33 c63f 462d 4882 efe7 cb3f
00000360: 516d 3844 0d82 c13f e2f5 3c82 2552 8f3f
00000370: 70bc ec2a dd09 cb3f 9393 375f 26f7 cf3f
00000380: 291c 0798 c743 aa3f 65bc b5c6 5fe1 ca3f
00000390: 9ef8 6766 21cc a53f f58e 7f8d 9950 cf3f
000003a0: 3c81 4f19 660c c33f dbec 6aef 5316 ae3f
000003b0: 5c97 dce7 f877 cdbf c952 148b 688f b23f
000003c0: 4207 7545 07f2 cb3f 1e22 f682 aa3c c7bf
000003d0: ef6c c2d6 1b93 c3bf d818 e909 d2b5 ccbf
000003e0: df53 6f49 3fc5 a43f f0df 4931 cbad c4bf
000003f0: eb17 96c7 8914 bebf 78be eb05 9472 b83f
00000400: 36eb a51a 1756 c0bf cef2 5458 898a a33f
00000410: 4624 4c4a c4dd ba3f e830 1c21 f768 c8bf
00000420: f77f ee85 c458 c1bf 763d ec03 7ffd 69bf
00000430: 1d38 8ae8 18d9 c63f 7968 345f c527 cb3f
00000440: 60e8 d577 52b3 c4bf 7e6a 63b1 a0cc b7bf
00000450: 8254 ad28 4514 6bbf ca2f ad8d e51a 85bf
0.1610042912226221 -0.15363933765900376 -0.042045389935867296 0.17921385081445973 0.27023966617345696 -0.24711062663603062 0.06047389310159222 0.15035736609279732
-0.07272919411209665 0.2640590683488243 0.043876363654869896 0.15268145163349023 0.04252205726630659 0.023406514871418815 0.22743389319126592 0.2752507632948981
-0.23363377540498345 0.1367150339702871 -0.2095497243039034 0.0037345112776252694 -0.11126135697749442 -0.09345615080391691 0.24175092903406012 0.23000050442125977
-0.07499031755099572 0.1219480410986123 0.08202449518108229 -0.09837946678072947 -0.2568824591913621 -0.17605216783773728 -0.20048638578118927 0.25924736055829756
0.0034984444446459362 -0.1212744215770839 -0.1116736128955084 0.17646623449433435 -0.1027089779346039 0.2194218073815279 -0.20748595116528395 0.06494224853879413
-0.0951127447677431 -0.017298883587621307 0.19476540054499641 -0.04192060482162436 -0.14223716455265384 -0.0003848121935174601 -0.10095368375400414 0.160634308763288
-0.0025601104732865566 -0.07072424528508595 -0.21985006191019166 -0.20005591807644096 -0.1109862149867284 0.1741183416482785 -0.054342697618259654 0.16222123791612342
-0.09366859897558247 -0.06422134827506665 -0.20844359757720804 0.14983233048970465 0.04963115133541988 -0.24181485302973146 0.09839012178854277 -0.05439584123516148
-0.027936469065717902 -0.16734862136173626 -0.009762053706421067 0.19205613379425163 -0.1399745305809109 -0.1399578407512305 -0.06788053949471745 0.028307624859350337
0.18042171005416302 0.018309638045470075 0.11660506174443012 0.1437154283080602 0.14826920974928637 -0.0192827151451809 0.1471880322372704 0.13802937860339864
-0.11294480711960761 0.07363887623185517 -0.25952490691017527 -0.11747548964636033 -0.2352544067801678 -0.22112864126916296 0.17108734089003813 -0.21449905285960286
0.1751190006264385 0.09775620880121094 0.19834149651848246 0.2537841150652327 0.21519061472938206 0.17521446780528277 -0.25883123645379946 0.07467832926467328
-0.2307108880459902 -0.21043090214414137 -0.23592959854122297 -0.19373135688535212 0.06732592896588072 -0.17852492845321846 0.27560687871524175 0.14114777471124781
-0.17222615812622 0.01553209058292476 0.1734519251666795 0.2180156122343339 0.13678136664462184 0.015293400799801075 0.21123852344451022 0.24972991608879322
0.05129836779411107 0.21000287249214292 0.04257301688265723 0.2446472111615702 0.1488158820711848 0.058764098144331554 -0.2302237636696941 0.07250073810093761
0.218323620714779 -0.1815388812504048 -0.15292690264036632 -0.2242987202063833 0.04056737681791111 -0.16155376345318428 -0.1175008880873915 0.09549832481911291
-0.12762726594140766 0.03816632464665802 0.10494639219190657 -0.19070328823762073 -0.1355214742625319 -0.0031726341980015628 0.17850028376091212 0.21215121411006857
-0.16172247744890722 -0.0929661210133563 -0.003305563999144002 -0.01030520762073896

hidden_1.bias f8 [10]
00000000: 6edf 0a2c d054 d1bf 06d3 d2ca 1c2f c4bf
00000010: c498 e357 0927 d0bf 0a94 6503 0240 cc3f
00000020: 85b3 4a7d df64 cc3f e2a9 3851 83bf a2bf
00000030: 4cba d3cf bd41 c9bf fa80 b29c 43f5 ca3f
00000040: a89f f17e 87a4 b33f d768 a372 efa6 c7bf
-0.2708015852072013 -0.15768775847904964 -0.252382598714018 0.22070336500033277 0.22182839982761152 -0.03661737791511023 -0.19731876991086705 0.21060986663088227
0.07672926758971121 -0.1847819623715796

hidden_2.weight f8 [7, 10]
00000000: 1ae6 7ec8 e9b8 92bf 6973 299f 68f7 d03f
00000010: 6667 e4cb 452d cd3f 221f 38b4 1cd2 d2bf
00000020: 4c97 1636 ddaf d0bf 7053 c59b 99dd d3bf
00000030: 9abd 8a2b 4bd8 d3bf 6d89 617c 0242 d03f
00000040: 5a2c f550 dc94 c8bf b4c3 0e8d 1ffc c33f
00000050: 3993 6162 1e05 d2bf a98d e243 2d19 d13f
00000060: e662 0060 ca35 b53f 0ddf 195a 08fb c83f
00000070: bbf5 1051 c587 aebf a522 f8bf 559e cbbf
00000080: a41e a5ad 60a4 c5bf 83a4 2f8c 29b2 ce3f
00000090: d054 5020 276a c7bf 8952 01dd 8152 c4bf
000000a0: 1c14 c774 326e b2bf 0cb6 8ca6 bd09 c13f
000000b0: f926 7b84 d86c d2bf 7827 9189 f363 bc3f
000000c0: 5207 c2aa ab81 d2bf 2625 03fa c5f7 ab3f
000000d0: b209 1e93 0af5 c93f bc14 592a 5a76 b3bf
000000e0: b334 0fc7 b4b5 cd3f 91ce 6054 8b39 c8bf
000000f0: 2f61 9e27 8488 d0bf 17c5 c9f2 dc1d c1bf
00000100: 842f 8968 58dd d33f 5582 9284 2c0f d13f
00000110: 15dc a46c 3740 b6bf 5305 8cec a277 ad3f
00000120: be56 9fad 7f78 c7bf af23 ebf4 9842 d0bf
00000130: f8ed c0f7 085f 393f 0d2a 7e73 3e4e d13f
00000140: 7209 499b 2cdf d33f bda6 15e6 7fe2 d2bf
00000150: 2d74 eb45 bbe7 bf3f 1733 b930 6529 d33f
00000160: 2fe1 9aac 1f08 d23f ba8c 08d1 a8e5 d2bf
00000170: eed9 7249 add6 d43f 4e4a 9e8a 4f74 c23f
00000180: fbef 4f06 6a4a d03f 6e7b 0f06 bcc7 cf3f
00000190: 5ea5 aa06 4b1d a5bf 639b 9007 6a71 7a3f
000001a0: f01f c75d 360e c3bf c808 5ce7 5619 81bf
000001b0: 6f04 a95f 82b9 b7bf 9822 a22d 6bbe c43f
000001c0: 3409 c00a c45d acbf 516d 7228 cca1 c13f
000001d0: 62e2 63f6 c99a ca3f 42cb 2bc7 551f 853f
000001e0: 73a5 a875 68ac 9d3f aec5 13b9 17b3 d43f
000001f0: 2dc5 3efc 5d3d d33f 5832 10be f450 cfbf
00000200: 40c9 3819 3a38 cbbf 0a1c ad7f f230 c43f
00000210: ca44 1578 1041 b5bf 3dfc 5bb7 3c17 a2bf
00000220: 26cc 1975 a895 d23f 9643 df05 8ea0 d1bf
-0.018283512937818804 0.26510062735706313 0.2279441114013096 -0.2940742263749475 -0.26073389322333607 -0.31040039264671915 -0.3100765156950388 0.25402891298849434
-0.1920428653050717 0.156131690860574 -0.28156241996321146 0.2671616709651184 0.08285202831065028 0.19516090774026687 -0.05962959875658266 -0.21576949952602323
-0.16907890776405055 0.23981208176636323 -0.18292702749082546 -0.15876792231815198 -0.07199397421852932 0.13310976631457583 -0.287893418670691 0.11090013607568305
-0.28916446376398597 0.054624735611989814 0.2027905672403683 -0.07602466138731051 0.2321077320069996 -0.18925611133601142 -0.25833228940020353 -0.13372384886637498
0.31038484772283703 0.26655114122880735 -0.08691736605111118 0.057553378463135595 -0.1833648298040113 -0.25406478803466376 0.0003871342557919262 0.2704006317004833
0.3104964748819362 -0.2950744387550051 0.1246296926214689 0.29940156705997495 0.28174583297688377 -0.29526729978006083 0.32560283825605907 0.14417452114556045
0.25454187981063087 0.24828291221544013 -0.04123911339167806 0.006455816438608905 -0.14887122706409128 -0.008349112449199572 -0.0926743968530148 0.16206111648741195
-0.055402876198075296 0.13775016760778638 0.20784878283281488 0.010313673153608986 0.028977996999093713 0.32343094896267643 0.30062055238075197 -0.24465808182175652
-0.2126534102586195 0.15774375185193917 -0.08302405292239992 -0.03533353555939598 0.2903844016611309 -0.275424485907075

hidden_2.bias f8 [7]
00000000: c3c5 39f3 fe72 ccbf b8f6 bab2 895f d0bf
00000010: 4877 c335 a852 d23f 336d f3b3 2bc4 bebf
00000020: 1e64 5389 7362 cdbf 77f3 ee49 ca5d d4bf
00000030: 21a2 c0a8 e745 c3bf
-0.2222593963265763 -0.25583116964467534 0.2862949872049865 -0.12018082755405572 -0.2295669956718322 -0.31822449894007526 -0.15057082881800546
